trained.tflite (tflite, 733376 bytes, 54 tensors)

sequential/dense/Tensordot/MatMul;StatefulPartitionedCall/sequential/dense/Tensordot/MatMul i1 [16, 1280] scale=0.0006769976 zero_point=0
0	0xff	-0.0006769976
1	0xf9	-0.004738983
2	0x44	0.046035837
3	0x10	0.010831961
4	0x29	0.027756901
5	0xc1	-0.04265085
6	0xb8	-0.048743825
7	0x6e	0.07446974
8	0xd2	-0.031141888
9	0x56	0.05822179
10	0x1f	0.020986926
11	0xd7	-0.027756901
12	0xfa	-0.0040619858
13	0x54	0.056867797
14	0x4b	0.05077482
15	0x75	0.07920872
16	0x03	0.0020309929
17	0xdd	-0.023694916
18	0xe2	-0.020309927
19	0x1d	0.01963293
20	0x96	-0.07176174
21	0x49	0.049420822
22	0xc1	-0.04265085
23	0xbb	-0.046712834
24	0xad	-0.0561908
25	0xda	-0.025725909
26	0x5c	0.062283777
27	0x47	0.04806683
28	0xde	-0.023017919
29	0x97	-0.071084745
30	0x2d	0.030464891
31	0xe5	-0.018278934
32	0x36	0.036557868
33	0x33	0.034526877
34	0x44	0.046035837
35	0x49	0.049420822
36	0x06	0.0040619858
37	0xcf	-0.033172883
38	0x15	0.014216949
39	0xf5	-0.0074469736
40	0xd0	-0.032495886
41	0x95	-0.07243874
42	0xa7	-0.060252786
43	0xe6	-0.017601937
44	0xd0	-0.032495886
45	0x9d	-0.06702276
46	0x11	0.011508959
47	0x20	0.021663923
48	0x5b	0.06160678
49	0x4f	0.05348281
50	0xb6	-0.050097823
51	0xd7	-0.027756901
52	0xf1	-0.0101549635
53	0xd3	-0.030464891
54	0x5b	0.06160678
55	0x08	0.0054159807
56	0x2a	0.028433898
57	0xd0	-0.032495886
58	0xc1	-0.04265085
59	0x52	0.055513803
60	0x32	0.03384988
61	0x64	0.06769976
62	0xf6	-0.0067699756
63	0x2e	0.031141888
64	0xcb	-0.03588087
65	0xc6	-0.03926586
66	0x56	0.05822179
67	0xdf	-0.02234092
68	0x19	0.01692494
69	0x1d	0.01963293
70	0xbb	-0.046712834
71	0x13	0.012862954
72	0xee	-0.012185956
73	0xe9	-0.015570944
74	0x06	0.0040619858
75	0x43	0.045358837
76	0xa1	-0.06431477
77	0x92	-0.07446974
78	0xd7	-0.027756901
79	0x3f	0.04265085
80	0xb6	-0.050097823
81	0x31	0.033172883
82	0xc7	-0.038588863
83	0x15	0.014216949
84	0x54	0.056867797
85	0x31	0.033172883
86	0xb7	-0.049420822
87	0xe0	-0.021663923
88	0x30	0.032495886
89	0xa1	-0.06431477
90	0x01	0.0006769976
91	0x01	0.0006769976
92	0xaa	-0.05822179
93	0xa8	-0.05957579
94	0x60	0.06499177
95	0xc0	-0.043327846
96	0xbf	-0.044004843
97	0x00	0.0
98	0x4d	0.052128814
99	0x27	0.026402906
100	0xac	-0.056867797
101	0x48	0.048743825
102	0x24	0.024371913
103	0x36	0.036557868
104	0xeb	-0.014216949
105	0xed	-0.012862954
106	0x45	0.046712834
107	0xa5	-0.06160678
108	0x04	0.0027079904
109	0x46	0.04738983
110	0x30	0.032495886
111	0x0f	0.0101549635
112	0xd8	-0.027079903
113	0x2e	0.031141888
114	0xbd	-0.045358837
115	0x50	0.054159805
116	0xf0	-0.010831961
117	0xe2	-0.020309927
118	0x24	0.024371913
119	0xde	-0.023017919
120	0xe8	-0.016247943
121	0x1d	0.01963293
122	0x48	0.048743825
123	0xe9	-0.015570944
124	0x2d	0.030464891
125	0x19	0.01692494
126	0x8c	-0.07853172
127	0x3c	0.040619854
128	0x2a	0.028433898
129	0xf6	-0.0067699756
130	0x94	-0.073115736
131	0x1b	0.018278934
132	0xba	-0.04738983
133	0x4d	0.052128814
134	0x22	0.023017919
135	0xea	-0.014893947
136	0x2c	0.029787894
137	0xf6	-0.0067699756
138	0xa5	-0.06160678
139	0xc3	-0.041296855
140	0x05	0.0033849878
141	0x46	0.04738983
142	0x58	0.05957579
143	0x0d	0.0088009685
144	0xde	-0.023017919
145	0x3d	0.041296855
146	0x1c	0.018955933
147	0xfc	-0.0027079904
148	0xe3	-0.01963293
149	0x1a	0.017601937
150	0x5b	0.06160678
151	0xb4	-0.051451817
152	0xc9	-0.03723487
153	0x37	0.03723487
154	0xcc	-0.035203874
155	0xd4	-0.029787894
156	0xed	-0.012862954
157	0xb1	-0.05348281
158	0xed	-0.012862954
159	0xd6	-0.028433898
160	0x9a	-0.069053754
161	0xeb	-0.014216949
162	0x27	0.026402906
163	0x14	0.013539951
164	0x44	0.046035837
165	0xfb	-0.0033849878
166	0x21	0.02234092
167	0xa8	-0.05957579
168	0xce	-0.03384988
169	0x5b	0.06160678
170	0xdb	-0.025048912
171	0xb9	-0.04806683
172	0xc6	-0.03926586
173	0x07	0.004738983
174	0xe1	-0.020986926
175	0xae	-0.055513803
176	0x16	0.014893947
177	0x57	0.05889879
178	0x15	0.014216949
179	0xa7	-0.060252786
180	0x1a	0.017601937
181	0x3f	0.04265085
182	0x42	0.04468184
183	0x94	-0.073115736
184	0x9d	-0.06702276
185	0x1c	0.018955933
186	0xa7	-0.060252786
187	0x0e	0.009477966
188	0xe3	-0.01963293
189	0x36	0.036557868
190	0x29	0.027756901
191	0xb0	-0.054159805
192	0x4b	0.05077482
193	0xd0	-0.032495886
194	0x0b	0.0074469736
195	0x2d	0.030464891
196	0xbf	-0.044004843
197	0xf6	-0.0067699756
198	0xfd	-0.0020309929
199	0x21	0.02234092
200	0xa2	-0.06363777
201	0x99	-0.06973075
202	0x1e	0.020309927
203	0x66	0.069053754
204	0xd2	-0.031141888
205	0x52	0.055513803
206	0xe5	-0.018278934
207	0xb5	-0.05077482
208	0xee	-0.012185956
209	0xab	-0.057544794
210	0x13	0.012862954
211	0xa7	-0.060252786
212	0xeb	-0.014216949
213	0xc8	-0.037911866
214	0xe0	-0.021663923
215	0xfc	-0.0027079904
216	0xc8	-0.037911866
217	0x9c	-0.06769976
218	0x2c	0.029787894
219	0xb1	-0.05348281
220	0x1a	0.017601937
221	0xf1	-0.0101549635
222	0x50	0.054159805
223	0xa2	-0.06363777
224	0xf8	-0.0054159807
225	0x1c	0.018955933
226	0x2f	0.031818885
227	0x50	0.054159805
228	0x5c	0.062283777
229	0xcc	-0.035203874
230	0x18	0.016247943
231	0xe5	-0.018278934
232	0x1e	0.020309927
233	0x2c	0.029787894
234	0x2d	0.030464891
235	0x50	0.054159805
236	0x45	0.046712834
237	0x07	0.004738983
238	0x00	0.0
239	0xce	-0.03384988
240	0x9f	-0.06566877
241	0xe0	-0.021663923
242	0xae	-0.055513803
243	0xfd	-0.0020309929
244	0xea	-0.014893947
245	0x2c	0.029787894
246	0x3f	0.04265085
247	0x15	0.014216949
248	0xd4	-0.029787894
249	0xf7	-0.006092978
250	0xb6	-0.050097823
251	0x5b	0.06160678
252	0x02	0.0013539952
253	0xa5	-0.06160678
254	0xdf	-0.02234092
255	0x34	0.035203874

sequential/dense_1/MatMul;StatefulPartitionedCall/sequential/dense_1/MatMul i1 [4, 144] scale=0.0017166355 zero_point=0
0	0xd5	-0.07381533
1	0xca	-0.09269832
2	0x74	0.19912972
3	0x6d	0.18711327
4	0x22	0.05836561
5	0x8f	-0.19397981
6	0x4c	0.1304643
7	0x6f	0.19054654
8	0xa2	-0.16136374
9	0x4f	0.1356142
10	0x44	0.11673122
11	0x64	0.17166355
12	0xc9	-0.09441496
13	0x03	0.0051499065
14	0xb2	-0.13389757
15	0x1a	0.044632524
16	0x01	0.0017166355
17	0x17	0.039482616
18	0x0a	0.017166356
19	0x49	0.1253144
20	0xf0	-0.027466169
21	0x10	0.027466169
22	0x0f	0.025749533
23	0xca	-0.09269832
24	0x61	0.16651365
25	0xeb	-0.036049347
26	0xd7	-0.07038206
27	0x3c	0.10299813
28	0x9f	-0.16651365
29	0x16	0.037765983
30	0x47	0.12188112
31	0xc8	-0.09613159
32	0x90	-0.19226319
33	0xbb	-0.118447855
34	0x42	0.11329795
35	0xb7	-0.1253144
36	0x8f	-0.19397981
37	0xdd	-0.060082246
38	0x43	0.11501458
39	0xa5	-0.15621383
40	0x63	0.16994692
41	0xa8	-0.15106393
42	0xe3	-0.04978243
43	0xd8	-0.06866542
44	0x0b	0.018882992
45	0x50	0.13733084
46	0x24	0.061798878
47	0x31	0.08411514
48	0x03	0.0051499065
49	0x9e	-0.16823028
50	0x0f	0.025749533
51	0xc8	-0.09613159
52	0xef	-0.029182805
53	0xaa	-0.14763066
54	0xca	-0.09269832
55	0x73	0.19741309
56	0xea	-0.037765983
57	0x99	-0.17681345
58	0x12	0.030899439
59	0x59	0.15278056
60	0xc9	-0.09441496
61	0x3e	0.1064314
62	0x20	0.054932337
63	0xb3	-0.13218093
64	0xfd	-0.0051499065
65	0x04	0.006866542
66	0x4b	0.12874767
67	0xdb	-0.063515514
68	0x9c	-0.17166355
69	0xd9	-0.06694879
70	0x9c	-0.17166355
71	0xa1	-0.16308038
72	0xb7	-0.1253144
73	0x59	0.15278056
74	0xfd	-0.0051499065
75	0xb7	-0.1253144
76	0x82	-0.21629608
77	0xdb	-0.063515514
78	0x26	0.06523215
79	0x15	0.036049347
80	0x11	0.029182805
81	0xf1	-0.025749533
82	0xcc	-0.08926505
83	0x92	-0.18882991
84	0xf7	-0.0154497195
85	0xe1	-0.0532157
86	0x2f	0.08068187
87	0x26	0.06523215
88	0xae	-0.14076412
89	0xf5	-0.018882992
90	0xfe	-0.003433271
91	0xda	-0.06523215
92	0xf6	-0.017166356
93	0xc4	-0.10299813
94	0x5d	0.1596471
95	0x21	0.056648973
96	0xdc	-0.061798878
97	0xd7	-0.07038206
98	0xfa	-0.010299813
99	0xc3	-0.104714766
100	0x65	0.1733802
101	0xa1	-0.16308038
102	0x6c	0.18539664
103	0x2a	0.072098695
104	0x4c	0.1304643
105	0x4a	0.12703103
106	0x48	0.123597756
107	0xe4	-0.048065796
108	0x07	0.012016449
109	0x46	0.12016449
110	0x6a	0.18196337
111	0xf7	-0.0154497195
112	0xe1	-0.0532157
113	0xd3	-0.077248596
114	0xd1	-0.08068187
115	0x6d	0.18711327
116	0x49	0.1253144
117	0xb7	-0.1253144
118	0x2b	0.07381533
119	0x78	0.20599626
120	0x28	0.06866542
121	0xaa	-0.14763066
122	0x00	0.0
123	0xc3	-0.104714766
124	0xf4	-0.020599626
125	0x48	0.123597756
126	0x99	-0.17681345
127	0x5b	0.15621383
128	0xa5	-0.15621383
129	0x12	0.030899439
130	0x7c	0.2128628
131	0xff	-0.0017166355
132	0x3e	0.1064314
133	0x56	0.14763066
134	0x39	0.09784823
135	0x31	0.08411514
136	0xa4	-0.15793046
137	0x06	0.010299813
138	0x13	0.032616075
139	0x58	0.15106393
140	0x51	0.13904747
141	0xaa	-0.14763066
142	0xc9	-0.09441496
143	0x54	0.14419739
144	0x4c	0.1304643
145	0xa7	-0.15278056
146	0x01	0.0017166355
147	0x11	0.029182805
148	0x44	0.11673122
149	0xae	-0.14076412
150	0xc6	-0.09956486
151	0x16	0.037765983
152	0xa0	-0.16479701
153	0x68	0.1785301
154	0xb6	-0.12703103
155	0xeb	-0.036049347
156	0x66	0.17509682
157	0xa3	-0.1596471
158	0x3f	0.10814804
159	0x77	0.20427963
160	0x10	0.027466169
161	0xc3	-0.104714766
162	0xa9	-0.14934729
163	0xcf	-0.08411514
164	0xde	-0.05836561
165	0x49	0.1253144
166	0x56	0.14763066
167	0x6c	0.18539664
168	0x91	-0.19054654
169	0x4f	0.1356142
170	0x67	0.17681345
171	0xb3	-0.13218093
172	0xf6	-0.017166356
173	0xb5	-0.12874767
174	0xe3	-0.04978243
175	0xe1	-0.0532157
176	0xa6	-0.15449719
177	0x49	0.1253144
178	0xe4	-0.048065796
179	0x11	0.029182805
180	0xec	-0.03433271
181	0xd7	-0.07038206
182	0xb1	-0.1356142
183	0x9b	-0.1733802
184	0xfd	-0.0051499065
185	0xe9	-0.039482616
186	0x23	0.060082246
187	0x25	0.063515514
188	0xec	-0.03433271
189	0xec	-0.03433271
190	0x79	0.2077129
191	0xd5	-0.07381533
192	0xb5	-0.12874767
193	0xfa	-0.010299813
194	0xa8	-0.15106393
195	0x02	0.003433271
196	0xe6	-0.044632524
197	0xbf	-0.11158131
198	0x1d	0.04978243
199	0x04	0.006866542
200	0x16	0.037765983
201	0xd6	-0.072098695
202	0x82	-0.21629608
203	0xde	-0.05836561
204	0xb5	-0.12874767
205	0x38	0.09613159
206	0x16	0.037765983
207	0xaa	-0.14763066
208	0x25	0.063515514
209	0x3c	0.10299813
210	0x84	-0.2128628
211	0xd0	-0.082398504
212	0xd4	-0.07553197
213	0xf2	-0.024032898
214	0x08	0.013733084
215	0x1b	0.04634916
216	0x50	0.13733084
217	0x4f	0.1356142
218	0xbd	-0.11501458
219	0x0f	0.025749533
220	0xf4	-0.020599626
221	0x9f	-0.16651365
222	0x58	0.15106393
223	0xde	-0.05836561
224	0x2d	0.077248596
225	0xb8	-0.123597756
226	0x0d	0.022316262
227	0xe0	-0.054932337
228	0x2c	0.07553197
229	0x15	0.036049347
230	0x5d	0.1596471
231	0x38	0.09613159
232	0xae	-0.14076412
233	0x03	0.0051499065
234	0x63	0.16994692
235	0xd7	-0.07038206
236	0x54	0.14419739
237	0x46	0.12016449
238	0xb0	-0.13733084
239	0x64	0.17166355
240	0x89	-0.20427963
241	0x1b	0.04634916
242	0x8c	-0.19912972
243	0x6a	0.18196337
244	0xa2	-0.16136374
245	0x6f	0.19054654
246	0x17	0.039482616
247	0xc1	-0.10814804
248	0xff	-0.0017166355
249	0x6d	0.18711327
250	0xca	-0.09269832
251	0xf0	-0.027466169
252	0x36	0.09269832
253	0x00	0.0
254	0xce	-0.085831776
255	0xe0	-0.054932337

sequential/functional_1/Conv1/Conv2D;StatefulPartitionedCall/sequential/functional_1/Conv1/Conv2D i1 [16, 3, 3, 3]
0	0x00	0
1	0x00	0
2	0x00	0
3	0x00	0
4	0x00	0
5	0x00	0
6	0x00	0
7	0x00	0
8	0x00	0
9	0x00	0
10	0x00	0
11	0x00	0
12	0x00	0
13	0x00	0
14	0x00	0
15	0x00	0
16	0x00	0
17	0x00	0
18	0x00	0
19	0x00	0
20	0x00	0
21	0x00	0
22	0x00	0
23	0x00	0
24	0x00	0
25	0x00	0
26	0x00	0
27	0x2e	46
28	0xfb	-5
29	0x1d	29
30	0xfb	-5
31	0xe8	-24
32	0x0e	14
33	0x81	-127
34	0x87	-121
35	0xbc	-68
36	0x02	2
37	0xfa	-6
38	0xfe	-2
39	0xea	-22
40	0x02	2
41	0xfa	-6
42	0x01	1
43	0xe0	-32
44	0x04	4
45	0xfc	-4
46	0x10	16
47	0xfd	-3
48	0xfb	-5
49	0x06	6
50	0xfd	-3
51	0x27	39
52	0xed	-19
53	0x0c	12
54	0x1e	30
55	0xfa	-6
56	0xfa	-6
57	0x4d	77
58	0x72	114
59	0x01	1
60	0x29	41
61	0xd9	-39
62	0x08	8
63	0x0a	10
64	0x0c	12
65	0xff	-1
66	0x47	71
67	0x7f	127
68	0xe4	-28
69	0x15	21
70	0xfb	-5
71	0xfa	-6
72	0x32	50
73	0xbe	-66
74	0x14	20
75	0x4b	75
76	0xd5	-43
77	0xeb	-21
78	0x22	34
79	0xca	-54
80	0x0f	15
81	0x07	7
82	0x21	33
83	0x04	4
84	0x21	33
85	0x5f	95
86	0x16	22
87	0x01	1
88	0x06	6
89	0xfc	-4
90	0x15	21
91	0x24	36
92	0x06	6
93	0x44	68
94	0x7f	127
95	0x1b	27
96	0xf4	-12
97	0xee	-18
98	0x04	4
99	0x06	6
100	0x04	4
101	0x05	5
102	0x1b	27
103	0x1b	27
104	0x09	9
105	0x00	0
106	0xfd	-3
107	0x04	4
108	0x2a	42
109	0x4c	76
110	0xf8	-8
111	0x12	18
112	0x56	86
113	0xf6	-10
114	0xf0	-16
115	0x09	9
116	0xfd	-3
117	0x31	49
118	0x60	96
119	0x35	53
120	0x23	35
121	0x7f	127
122	0x21	33
123	0x1f	31
124	0x35	53
125	0xf0	-16
126	0x38	56
127	0x4f	79
128	0x23	35
129	0x2e	46
130	0x7a	122
131	0x0d	13
132	0xe7	-25
133	0x15	21
134	0x12	18
135	0x08	8
136	0x02	2
137	0x89	-119
138	0xfd	-3
139	0x01	1
140	0x99	-103
141	0xfb	-5
142	0x1c	28
143	0xe5	-27
144	0x05	5
145	0xd6	-42
146	0x81	-127
147	0x00	0
148	0xd4	-44
149	0x8e	-114
150	0xff	-1
151	0x0d	13
152	0xe9	-23
153	0xfe	-2
154	0x09	9
155	0xef	-17
156	0x03	3
157	0xff	-1
158	0xf6	-10
159	0x02	2
160	0x0e	14
161	0xf6	-10
162	0x19	25
163	0xc1	-63
164	0x22	34
165	0x30	48
166	0xa9	-87
167	0x28	40
168	0x0a	10
169	0xec	-20
170	0x09	9
171	0x25	37
172	0xa0	-96
173	0x3e	62
174	0x40	64
175	0x81	-127
176	0x48	72
177	0x08	8
178	0xe4	-28
179	0x11	17
180	0x15	21
181	0xde	-34
182	0x0e	14
183	0x0f	15
184	0xd4	-44
185	0x1a	26
186	0xf4	-12
187	0x08	8
188	0x00	0
189	0xe1	-31
190	0x11	17
191	0x04	4
192	0x94	-108
193	0xd9	-39
194	0x01	1
195	0xe8	-24
196	0x17	23
197	0x02	2
198	0xf3	-13
199	0xf8	-8
200	0x01	1
201	0x81	-127
202	0xa3	-93
203	0xf9	-7
204	0xfa	-6
205	0xfb	-5
206	0x05	5
207	0xe9	-23
208	0x1e	30
209	0xf7	-9
210	0xf3	-13
211	0x0b	11
212	0x00	0
213	0xea	-22
214	0x19	25
215	0xfd	-3
216	0x6e	110
217	0x7f	127
218	0x49	73
219	0x69	105
220	0x7d	125
221	0x43	67
222	0x6a	106
223	0x77	119
224	0x40	64
225	0x6e	110
226	0x78	120
227	0x43	67
228	0x62	98
229	0x70	112
230	0x3a	58
231	0x68	104
232	0x71	113
233	0x39	57
234	0x68	104
235	0x72	114
236	0x41	65
237	0x62	98
238	0x72	114
239	0x3c	60
240	0x66	102
241	0x6f	111
242	0x3a	58
243	0xea	-22
244	0xfc	-4
245	0x08	8
246	0xf3	-13
247	0xfa	-6
248	0x00	0
249	0x04	4
250	0x04	4
251	0xf7	-9
252	0x5f	95
253	0x70	112
254	0xf7	-9
255	0x4a	74

sequential/functional_1/expanded_conv_project/Conv2D;StatefulPartitionedCall/sequential/functional_1/expanded_conv_project/Conv2D i1 [8, 1, 1, 16]
0	0x00	0
1	0xea	-22
2	0x02	2
3	0xff	-1
4	0x7e	126
5	0x00	0
6	0xff	-1
7	0x01	1
8	0x00	0
9	0x81	-127
10	0xa4	-92
11	0xfc	-4
12	0x00	0
13	0x7b	123
14	0xfe	-2
15	0x00	0
16	0x00	0
17	0xe3	-29
18	0x00	0
19	0x55	85
20	0x49	73
21	0x0e	14
22	0x17	23
23	0x07	7
24	0x00	0
25	0xfb	-5
26	0x7f	127
27	0xd5	-43
28	0x00	0
29	0x1d	29
30	0xf4	-12
31	0x00	0
32	0x00	0
33	0x01	1
34	0xff	-1
35	0xf4	-12
36	0xc6	-58
37	0x04	4
38	0x0a	10
39	0x02	2
40	0x00	0
41	0x03	3
42	0xef	-17
43	0x01	1
44	0x00	0
45	0x7f	127
46	0xf8	-8
47	0x00	0
48	0x00	0
49	0xf5	-11
50	0xec	-20
51	0x81	-127
52	0x51	81
53	0x18	24
54	0x46	70
55	0x11	17
56	0x00	0
57	0x3d	61
58	0xff	-1
59	0x27	39
60	0x00	0
61	0xff	-1
62	0x13	19
63	0x00	0
64	0x00	0
65	0x32	50
66	0xe6	-26
67	0x23	35
68	0xc9	-55
69	0x1f	31
70	0x7f	127
71	0x0a	10
72	0x00	0
73	0xc3	-61
74	0x11	17
75	0xf7	-9
76	0x00	0
77	0xfa	-6
78	0x10	16
79	0x00	0
80	0x00	0
81	0xf0	-16
82	0xf5	-11
83	0x00	0
84	0xe9	-23
85	0xe9	-23
86	0xf4	-12
87	0x10	16
88	0x00	0
89	0x09	9
90	0xfb	-5
91	0xd4	-44
92	0x00	0
93	0xfb	-5
94	0x7f	127
95	0x00	0
96	0x00	0
97	0x12	18
98	0xfd	-3
99	0x01	1
100	0x32	50
101	0xea	-22
102	0xe8	-24
103	0xf8	-8
104	0x00	0
105	0x96	-106
106	0x72	114
107	0x3d	61
108	0x00	0
109	0x7f	127
110	0x3d	61
111	0x00	0
112	0x00	0
113	0x0e	14
114	0xf0	-16
115	0x7f	127
116	0x07	7
117	0xfd	-3
118	0x11	17
119	0x09	9
120	0x00	0
121	0x44	68
122	0xcc	-52
123	0x4c	76
124	0x00	0
125	0xf8	-8
126	0x31	49
127	0x00	0

sequential/functional_1/block_1_expand/Conv2D;StatefulPartitionedCall/sequential/functional_1/block_1_expand/Conv2D i1 [48, 1, 1, 8]
0	0x10	16
1	0x81	-127
2	0x32	50
3	0xd4	-44
4	0x1c	28
5	0xef	-17
6	0xce	-50
7	0x17	23
8	0x47	71
9	0x42	66
10	0xea	-22
11	0xa1	-95
12	0x0b	11
13	0xf4	-12
14	0xb1	-79
15	0x7f	127
16	0x1f	31
17	0x06	6
18	0xd2	-46
19	0x7e	126
20	0x35	53
21	0x7f	127
22	0x30	48
23	0x5d	93
24	0x51	81
25	0x49	73
26	0xae	-82
27	0x7f	127
28	0xa2	-94
29	0xf9	-7
30	0xf7	-9
31	0x0e	14
32	0xdd	-35
33	0x9a	-102
34	0x4a	74
35	0x0a	10
36	0x06	6
37	0x1f	31
38	0xd3	-45
39	0x81	-127
40	0x14	20
41	0x06	6
42	0xde	-34
43	0x2a	42
44	0x03	3
45	0xe1	-31
46	0x28	40
47	0x7f	127
48	0x39	57
49	0xee	-18
50	0x81	-127
51	0xa7	-89
52	0x6e	110
53	0x0e	14
54	0x32	50
55	0xdc	-36
56	0x7f	127
57	0x11	17
58	0x15	21
59	0xe9	-23
60	0x1d	29
61	0xfa	-6
62	0x56	86
63	0xc4	-60
64	0x15	21
65	0x9e	-98
66	0x0d	13
67	0x68	104
68	0x02	2
69	0x18	24
70	0xf4	-12
71	0x81	-127
72	0x69	105
73	0x81	-127
74	0x0e	14
75	0xfe	-2
76	0xf3	-13
77	0x0d	13
78	0x87	-121
79	0x58	88
80	0x81	-127
81	0xdc	-36
82	0x8b	-117
83	0x13	19
84	0xf5	-11
85	0x05	5
86	0x9a	-102
87	0x35	53
88	0xeb	-21
89	0xd5	-43
90	0xf8	-8
91	0x97	-105
92	0x81	-127
93	0xde	-34
94	0x2f	47
95	0xf0	-16
96	0x10	16
97	0x07	7
98	0xd9	-39
99	0x43	67
100	0xb5	-75
101	0xe9	-23
102	0x3a	58
103	0x7f	127
104	0x00	0
105	0x00	0
106	0x00	0
107	0x00	0
108	0x00	0
109	0x00	0
110	0x00	0
111	0x00	0
112	0xfa	-6
113	0xdf	-33
114	0xfa	-6
115	0x0b	11
116	0x2a	42
117	0x7f	127
118	0x2e	46
119	0x29	41
120	0x2a	42
121	0x02	2
122	0x11	17
123	0x81	-127
124	0x42	66
125	0x27	39
126	0xc8	-56
127	0x4a	74
128	0x00	0
129	0x00	0
130	0x00	0
131	0x00	0
132	0x00	0
133	0x00	0
134	0x00	0
135	0x00	0
136	0x0f	15
137	0x18	24
138	0x7f	127
139	0x16	22
140	0xe5	-27
141	0xf7	-9
142	0x1d	29
143	0x1e	30
144	0x59	89
145	0x81	-127
146	0x19	25
147	0x21	33
148	0xfb	-5
149	0x14	20
150	0x8a	-118
151	0x03	3
152	0x81	-127
153	0xf3	-13
154	0x1c	28
155	0x4b	75
156	0xc7	-57
157	0xc6	-58
158	0x9d	-99
159	0x46	70
160	0x22	34
161	0x20	32
162	0xd6	-42
163	0x71	113
164	0xea	-22
165	0x81	-127
166	0xfb	-5
167	0x3d	61
168	0x38	56
169	0x16	22
170	0x7f	127
171	0x09	9
172	0xf2	-14
173	0xf6	-10
174	0x43	67
175	0x0b	11
176	0xb2	-78
177	0xef	-17
178	0x81	-127
179	0x03	3
180	0x05	5
181	0x0a	10
182	0x9c	-100
183	0x04	4
184	0x9b	-101
185	0x7f	127
186	0xee	-18
187	0xeb	-21
188	0x08	8
189	0xf5	-11
190	0x7f	127
191	0xb3	-77
192	0x06	6
193	0xca	-54
194	0xcd	-51
195	0x55	85
196	0xf7	-9
197	0xc4	-60
198	0x62	98
199	0x7f	127
200	0x0c	12
201	0x2d	45
202	0x23	35
203	0x1f	31
204	0x7f	127
205	0x7c	124
206	0xb4	-76
207	0xcc	-52
208	0xac	-84
209	0xe2	-30
210	0x81	-127
211	0xfd	-3
212	0x07	7
213	0x0e	14
214	0xa4	-92
215	0x00	0
216	0x01	1
217	0xe6	-26
218	0xe1	-31
219	0x07	7
220	0xd6	-42
221	0x7f	127
222	0x42	66
223	0x31	49
224	0x02	2
225	0xee	-18
226	0xec	-20
227	0x28	40
228	0x17	23
229	0x7f	127
230	0x33	51
231	0x3c	60
232	0x59	89
233	0x1d	29
234	0x7f	127
235	0x02	2
236	0xee	-18
237	0xf1	-15
238	0x56	86
239	0xfa	-6
240	0xb0	-80
241	0x7f	127
242	0xe8	-24
243	0xe5	-27
244	0x0a	10
245	0xfb	-5
246	0x64	100
247	0xcf	-49
248	0xd5	-43
249	0xa0	-96
250	0xec	-20
251	0x03	3
252	0x20	32
253	0xb8	-72
254	0x7f	127
255	0x6e	110

sequential/functional_1/block_1_project/Conv2D;StatefulPartitionedCall/sequential/functional_1/block_1_project/Conv2D i1 [8, 1, 1, 48]
0	0xf4	-12
1	0xff	-1
2	0x09	9
3	0xa3	-93
4	0x0a	10
5	0x1a	26
6	0x06	6
7	0x06	6
8	0x03	3
9	0x06	6
10	0x02	2
11	0xfb	-5
12	0x61	97
13	0x00	0
14	0x01	1
15	0x06	6
16	0x00	0
17	0xf8	-8
18	0xfa	-6
19	0x00	0
20	0x4d	77
21	0xfc	-4
22	0x00	0
23	0x05	5
24	0x1d	29
25	0x24	36
26	0x0d	13
27	0x0c	12
28	0x05	5
29	0x04	4
30	0x03	3
31	0x81	-127
32	0x0a	10
33	0x06	6
34	0xff	-1
35	0x00	0
36	0xe4	-28
37	0x01	1
38	0xf0	-16
39	0x21	33
40	0x08	8
41	0xe6	-26
42	0xf8	-8
43	0x05	5
44	0x02	2
45	0xfe	-2
46	0x04	4
47	0x02	2
48	0xdc	-36
49	0xf8	-8
50	0xfd	-3
51	0xfa	-6
52	0x2c	44
53	0x1a	26
54	0xe3	-29
55	0x4c	76
56	0x14	20
57	0x06	6
58	0xe1	-31
59	0xea	-22
60	0x0c	12
61	0x00	0
62	0x12	18
63	0x25	37
64	0x00	0
65	0x28	40
66	0x12	18
67	0xd1	-47
68	0x00	0
69	0x15	21
70	0x7f	127
71	0x14	20
72	0xe4	-28
73	0xfe	-2
74	0x36	54
75	0x04	4
76	0x15	21
77	0xfd	-3
78	0x11	17
79	0xf5	-11
80	0x0e	14
81	0xf8	-8
82	0xf8	-8
83	0xeb	-21
84	0x06	6
85	0xca	-54
86	0x0a	10
87	0x04	4
88	0xf9	-7
89	0xf8	-8
90	0xb1	-79
91	0xf8	-8
92	0xe0	-32
93	0x07	7
94	0xd0	-48
95	0x9f	-97
96	0xc5	-59
97	0x0f	15
98	0xff	-1
99	0x0b	11
100	0x2d	45
101	0xf5	-11
102	0x1d	29
103	0x19	25
104	0xf7	-9
105	0x37	55
106	0x08	8
107	0xfa	-6
108	0x03	3
109	0x00	0
110	0x06	6
111	0x35	53
112	0x00	0
113	0x0c	12
114	0x81	-127
115	0x18	24
116	0x00	0
117	0x0d	13
118	0x06	6
119	0xf0	-16
120	0xe0	-32
121	0x02	2
122	0x25	37
123	0x05	5
124	0x09	9
125	0x1e	30
126	0x17	23
127	0x03	3
128	0x07	7
129	0xf9	-7
130	0xf5	-11
131	0xf3	-13
132	0x0b	11
133	0x05	5
134	0x04	4
135	0x00	0
136	0x25	37
137	0xf9	-7
138	0xe2	-30
139	0x00	0
140	0x18	24
141	0xc7	-57
142	0x19	25
143	0x0e	14
144	0x01	1
145	0x00	0
146	0xff	-1
147	0x08	8
148	0xfb	-5
149	0x1c	28
150	0x00	0
151	0xfd	-3
152	0x41	65
153	0x12	18
154	0xfd	-3
155	0xfe	-2
156	0x1a	26
157	0x00	0
158	0xe2	-30
159	0xf8	-8
160	0x00	0
161	0x00	0
162	0xf7	-9
163	0x01	1
164	0xfd	-3
165	0x00	0
166	0x06	6
167	0xee	-18
168	0xf4	-12
169	0xfa	-6
170	0xf7	-9
171	0xfe	-2
172	0xf8	-8
173	0xfd	-3
174	0xff	-1
175	0xf7	-9
176	0xcf	-49
177	0x2c	44
178	0xc9	-55
179	0xfe	-2
180	0x06	6
181	0x00	0
182	0x03	3
183	0x81	-127
184	0x00	0
185	0x04	4
186	0x01	1
187	0xcd	-51
188	0xfe	-2
189	0xff	-1
190	0xff	-1
191	0x06	6
192	0x00	0
193	0xfd	-3
194	0x50	80
195	0x22	34
196	0x03	3
197	0xec	-20
198	0xfe	-2
199	0xfd	-3
200	0x03	3
201	0xfc	-4
202	0xfe	-2
203	0xf8	-8
204	0xb0	-80
205	0x00	0
206	0xf5	-11
207	0x04	4
208	0x00	0
209	0x09	9
210	0x06	6
211	0x00	0
212	0x42	66
213	0x04	4
214	0x01	1
215	0xfc	-4
216	0xf1	-15
217	0x1f	31
218	0xfb	-5
219	0x2e	46
220	0xf9	-7
221	0xff	-1
222	0x00	0
223	0x62	98
224	0x04	4
225	0x04	4
226	0xff	-1
227	0xfe	-2
228	0x10	16
229	0xf4	-12
230	0xf5	-11
231	0xee	-18
232	0xfd	-3
233	0x81	-127
234	0x03	3
235	0x03	3
236	0xff	-1
237	0xfd	-3
238	0x00	0
239	0x01	1
240	0xf9	-7
241	0x2c	44
242	0x04	4
243	0xf8	-8
244	0x03	3
245	0x2e	46
246	0x1a	26
247	0x0c	12
248	0xec	-20
249	0x1d	29
250	0x07	7
251	0x36	54
252	0x19	25
253	0x00	0
254	0x81	-127
255	0xff	-1

sequential/functional_1/block_2_expand/Conv2D;StatefulPartitionedCall/sequential/functional_1/block_2_expand/Conv2D i1 [48, 1, 1, 8]
0	0x4d	77
1	0x1d	29
2	0xff	-1
3	0xf8	-8
4	0x7f	127
5	0x1a	26
6	0xd0	-48
7	0xe8	-24
8	0xfa	-6
9	0xfe	-2
10	0x02	2
11	0x7f	127
12	0x09	9
13	0xfa	-6
14	0x06	6
15	0x0f	15
16	0x1c	28
17	0x81	-127
18	0xed	-19
19	0x28	40
20	0xfa	-6
21	0xbe	-66
22	0x4e	78
23	0x0c	12
24	0x7f	127
25	0xe1	-31
26	0xf8	-8
27	0x10	16
28	0xf6	-10
29	0xde	-34
30	0x1d	29
31	0x06	6
32	0x09	9
33	0xd1	-47
34	0x7f	127
35	0xf4	-12
36	0xf6	-10
37	0xd1	-47
38	0x0c	12
39	0xa3	-93
40	0x44	68
41	0x02	2
42	0x02	2
43	0xfd	-3
44	0x7f	127
45	0x0e	14
46	0xf6	-10
47	0xff	-1
48	0xf1	-15
49	0x5d	93
50	0xf3	-13
51	0x7f	127
52	0x1a	26
53	0x32	50
54	0xb8	-72
55	0xca	-54
56	0xfa	-6
57	0x7f	127
58	0xfd	-3
59	0x02	2
60	0x00	0
61	0xf3	-13
62	0x0f	15
63	0xfe	-2
64	0x7f	127
65	0x32	50
66	0xfc	-4
67	0x06	6
68	0xce	-50
69	0xe9	-23
70	0xff	-1
71	0xdb	-37
72	0x81	-127
73	0x0e	14
74	0x06	6
75	0x14	20
76	0x35	53
77	0x0a	10
78	0xf8	-8
79	0x02	2
80	0xb9	-71
81	0xf8	-8
82	0x0d	13
83	0x7f	127
84	0x27	39
85	0x1c	28
86	0xf1	-15
87	0xfd	-3
88	0x81	-127
89	0x01	1
90	0x0c	12
91	0xc0	-64
92	0x22	34
93	0x07	7
94	0xea	-22
95	0xd3	-45
96	0x7f	127
97	0x19	25
98	0x02	2
99	0x10	16
100	0xd2	-46
101	0xf4	-12
102	0x04	4
103	0xd3	-45
104	0xf5	-11
105	0x4d	77
106	0x81	-127
107	0xf8	-8
108	0x05	5
109	0x65	101
110	0xb8	-72
111	0x4a	74
112	0xcf	-49
113	0xe6	-26
114	0xf3	-13
115	0x7f	127
116	0x15	21
117	0x0a	10
118	0xfa	-6
119	0xe7	-25
120	0xfd	-3
121	0x7f	127
122	0x02	2
123	0xfd	-3
124	0x00	0
125	0xf1	-15
126	0x0a	10
127	0xce	-50
128	0xf5	-11
129	0x81	-127
130	0xec	-20
131	0x04	4
132	0xf7	-9
133	0x90	-112
134	0x75	117
135	0xe4	-28
136	0x14	20
137	0x7f	127
138	0x01	1
139	0xf4	-12
140	0x06	6
141	0x4d	77
142	0xaa	-86
143	0xed	-19
144	0xf8	-8
145	0x2c	44
146	0x81	-127
147	0xff	-1
148	0x08	8
149	0x36	54
150	0xe0	-32
151	0x3f	63
152	0xb6	-74
153	0x12	18
154	0x02	2
155	0x01	1
156	0x81	-127
157	0x03	3
158	0x16	22
159	0x19	25
160	0x81	-127
161	0xe9	-23
162	0xff	-1
163	0x01	1
164	0x4b	75
165	0xe2	-30
166	0x2a	42
167	0x01	1
168	0xc0	-64
169	0xfd	-3
170	0xfe	-2
171	0x02	2
172	0x81	-127
173	0xfc	-4
174	0x12	18
175	0x06	6
176	0x81	-127
177	0xe7	-25
178	0x00	0
179	0xfd	-3
180	0x55	85
181	0xf0	-16
182	0x24	36
183	0x32	50
184	0xec	-20
185	0xe8	-24
186	0xf9	-7
187	0xf8	-8
188	0xfe	-2
189	0x52	82
190	0x81	-127
191	0xa6	-90
192	0xf8	-8
193	0x28	40
194	0x81	-127
195	0x03	3
196	0x09	9
197	0x2f	47
198	0xed	-19
199	0x4c	76
200	0x63	99
201	0xdb	-37
202	0xff	-1
203	0x7f	127
204	0xb5	-75
205	0xf4	-12
206	0x0a	10
207	0xcf	-49
208	0x03	3
209	0xec	-20
210	0xfd	-3
211	0x01	1
212	0xf7	-9
213	0x79	121
214	0x7f	127
215	0xe3	-29
216	0x46	70
217	0xf8	-8
218	0xfe	-2
219	0x0d	13
220	0x7f	127
221	0x1c	28
222	0x23	35
223	0xed	-19
224	0x00	0
225	0x7f	127
226	0xbb	-69
227	0x05	5
228	0x06	6
229	0x51	81
230	0xe2	-30
231	0x7b	123
232	0xf8	-8
233	0x0c	12
234	0xfb	-5
235	0xf8	-8
236	0xfe	-2
237	0x58	88
238	0x81	-127
239	0xab	-85
240	0x03	3
241	0xfb	-5
242	0x01	1
243	0x81	-127
244	0xfa	-6
245	0x00	0
246	0xfd	-3
247	0xf3	-13
248	0xbe	-66
249	0x04	4
250	0x03	3
251	0x02	2
252	0x81	-127
253	0x08	8
254	0x0d	13
255	0x00	0

sequential/functional_1/block_2_project/Conv2D;StatefulPartitionedCall/sequential/functional_1/block_2_project/Conv2D i1 [8, 1, 1, 48]
0	0xcb	-53
1	0xf4	-12
2	0xdc	-36
3	0x10	16
4	0x06	6
5	0xe7	-25
6	0x00	0
7	0x02	2
8	0x8c	-116
9	0x7f	127
10	0xd9	-39
11	0x73	115
12	0x75	117
13	0x07	7
14	0x48	72
15	0xed	-19
16	0xf9	-7
17	0xdf	-33
18	0x07	7
19	0x04	4
20	0xf8	-8
21	0xfa	-6
22	0xea	-22
23	0xdd	-35
24	0x17	23
25	0xa1	-95
26	0x0a	10
27	0x41	65
28	0xf4	-12
29	0x0a	10
30	0x13	19
31	0xda	-38
32	0xfd	-3
33	0xb2	-78
34	0x6c	108
35	0x14	20
36	0xfd	-3
37	0xfa	-6
38	0xfa	-6
39	0xee	-18
40	0x74	116
41	0xfc	-4
42	0x2f	47
43	0xe8	-24
44	0xe1	-31
45	0x19	25
46	0xef	-17
47	0xee	-18
48	0xff	-1
49	0x21	33
50	0x7f	127
51	0x05	5
52	0xfb	-5
53	0xe8	-24
54	0x01	1
55	0xad	-83
56	0x1d	29
57	0xff	-1
58	0x16	22
59	0x06	6
60	0xec	-20
61	0x07	7
62	0xfa	-6
63	0x8a	-118
64	0x0a	10
65	0xc9	-55
66	0x09	9
67	0x05	5
68	0xe6	-26
69	0x20	32
70	0x18	24
71	0xde	-34
72	0xee	-18
73	0xf8	-8
74	0x0e	14
75	0x01	1
76	0x0c	12
77	0xfb	-5
78	0x0d	13
79	0xff	-1
80	0xfb	-5
81	0x0c	12
82	0x10	16
83	0x0c	12
84	0xf4	-12
85	0xdf	-33
86	0x41	65
87	0xc7	-57
88	0x0b	11
89	0x24	36
90	0xf5	-11
91	0x1a	26
92	0xf1	-15
93	0x08	8
94	0x19	25
95	0xff	-1
96	0x05	5
97	0xcf	-49
98	0x11	17
99	0xd5	-43
100	0x21	33
101	0x1b	27
102	0xfa	-6
103	0xe3	-29
104	0x06	6
105	0xff	-1
106	0xfe	-2
107	0x0e	14
108	0xf6	-10
109	0x3a	58
110	0x06	6
111	0xff	-1
112	0xda	-38
113	0x7f	127
114	0xe7	-25
115	0xde	-34
116	0xf1	-15
117	0x16	22
118	0xda	-38
119	0xf6	-10
120	0x7a	122
121	0x02	2
122	0x00	0
123	0xf9	-7
124	0xe3	-29
125	0xf7	-9
126	0x02	2
127	0xd7	-41
128	0xf8	-8
129	0xf2	-14
130	0x01	1
131	0x0a	10
132	0xf6	-10
133	0xfe	-2
134	0xf2	-14
135	0x07	7
136	0x10	16
137	0xec	-20
138	0xed	-19
139	0x00	0
140	0x02	2
141	0x1a	26
142	0xe7	-25
143	0xd8	-40
144	0x01	1
145	0xa9	-87
146	0xfe	-2
147	0x08	8
148	0x03	3
149	0xfa	-6
150	0xf6	-10
151	0xfe	-2
152	0xf9	-7
153	0xf4	-12
154	0x11	17
155	0x15	21
156	0x0d	13
157	0xf7	-9
158	0x31	49
159	0x02	2
160	0xf7	-9
161	0xeb	-21
162	0x03	3
163	0x17	23
164	0xfa	-6
165	0x14	20
166	0xe9	-23
167	0x03	3
168	0x06	6
169	0x34	52
170	0x01	1
171	0x07	7
172	0xf9	-7
173	0x05	5
174	0x7f	127
175	0x01	1
176	0x0c	12
177	0x07	7
178	0xfd	-3
179	0xff	-1
180	0xeb	-21
181	0xf2	-14
182	0xf9	-7
183	0x0c	12
184	0xf7	-9
185	0x06	6
186	0xf7	-9
187	0x1b	27
188	0xf9	-7
189	0x01	1
190	0xff	-1
191	0x22	34
192	0x9e	-98
193	0x07	7
194	0x00	0
195	0x02	2
196	0x00	0
197	0xda	-38
198	0x01	1
199	0x07	7
200	0x28	40
201	0xdb	-37
202	0x14	20
203	0xee	-18
204	0xe0	-32
205	0x01	1
206	0xf4	-12
207	0xf7	-9
208	0x02	2
209	0x07	7
210	0x01	1
211	0x19	25
212	0x09	9
213	0xe4	-28
214	0x0e	14
215	0x03	3
216	0xfa	-6
217	0x2d	45
218	0x06	6
219	0x6d	109
220	0x02	2
221	0x01	1
222	0xf9	-7
223	0xe1	-31
224	0x00	0
225	0x81	-127
226	0xe1	-31
227	0x0b	11
228	0x03	3
229	0xfa	-6
230	0x02	2
231	0x01	1
232	0xce	-50
233	0xfb	-5
234	0xf5	-11
235	0x11	17
236	0xc7	-57
237	0x03	3
238	0x06	6
239	0x06	6
240	0xe8	-24
241	0x1a	26
242	0x16	22
243	0x07	7
244	0xd1	-47
245	0x0b	11
246	0xfd	-3
247	0x2f	47
248	0x15	21
249	0x04	4
250	0x0e	14
251	0x07	7
252	0xfb	-5
253	0xd3	-45
254	0x07	7
255	0x23	35

sequential/functional_1/block_3_expand/Conv2D;StatefulPartitionedCall/sequential/functional_1/block_3_expand/Conv2D i1 [48, 1, 1, 8]
0	0x81	-127
1	0x00	0
2	0xfe	-2
3	0x4a	74
4	0xdc	-36
5	0x29	41
6	0x19	25
7	0xe2	-30
8	0x1d	29
9	0x49	73
10	0x2f	47
11	0x15	21
12	0x10	16
13	0xd6	-42
14	0x68	104
15	0x7f	127
16	0xd8	-40
17	0xff	-1
18	0x02	2
19	0xff	-1
20	0x81	-127
21	0xf3	-13
22	0x0c	12
23	0x03	3
24	0x64	100
25	0xfd	-3
26	0xf3	-13
27	0x85	-123
28	0x81	-127
29	0x11	17
30	0x23	35
31	0xee	-18
32	0x81	-127
33	0x2d	45
34	0xf0	-16
35	0xf6	-10
36	0x47	71
37	0xf3	-13
38	0x2d	45
39	0x15	21
40	0x9a	-102
41	0xe5	-27
42	0x15	21
43	0xf7	-9
44	0x81	-127
45	0x08	8
46	0x09	9
47	0x55	85
48	0xf0	-16
49	0x81	-127
50	0x19	25
51	0xef	-17
52	0x0d	13
53	0x03	3
54	0xfd	-3
55	0x21	33
56	0xbe	-66
57	0xfc	-4
58	0x03	3
59	0x66	102
60	0x7f	127
61	0xdf	-33
62	0xdd	-35
63	0x06	6
64	0x4a	74
65	0x04	4
66	0x02	2
67	0x81	-127
68	0x00	0
69	0xe9	-23
70	0xd3	-45
71	0xde	-34
72	0xfb	-5
73	0x81	-127
74	0xf8	-8
75	0xfb	-5
76	0x03	3
77	0x56	86
78	0xcc	-52
79	0x56	86
80	0xa2	-94
81	0xfb	-5
82	0xff	-1
83	0x16	22
84	0x81	-127
85	0x47	71
86	0x3f	63
87	0xf0	-16
88	0x73	115
89	0x0a	10
90	0x28	40
91	0x0d	13
92	0xc5	-59
93	0xd4	-44
94	0xdf	-33
95	0x81	-127
96	0x00	0
97	0x0e	14
98	0x2a	42
99	0xf9	-7
100	0x0a	10
101	0xb2	-78
102	0x7f	127
103	0x3f	63
104	0x42	66
105	0xe5	-27
106	0xf9	-7
107	0xf2	-14
108	0x7d	125
109	0x7f	127
110	0x77	119
111	0xd5	-43
112	0x7f	127
113	0x39	57
114	0xf3	-13
115	0x13	19
116	0x9b	-101
117	0xed	-19
118	0xe5	-27
119	0xed	-19
120	0xf1	-15
121	0x81	-127
122	0x10	16
123	0xf3	-13
124	0x04	4
125	0x04	4
126	0x05	5
127	0x24	36
128	0xcc	-52
129	0xf1	-15
130	0x04	4
131	0xff	-1
132	0x81	-127
133	0x00	0
134	0x0e	14
135	0x04	4
136	0xe6	-26
137	0x67	103
138	0x8d	-115
139	0x03	3
140	0x0c	12
141	0x81	-127
142	0x6c	108
143	0xa9	-87
144	0x7f	127
145	0xe4	-28
146	0xd5	-43
147	0x0e	14
148	0xc4	-60
149	0x1a	26
150	0x0b	11
151	0x66	102
152	0x7f	127
153	0xce	-50
154	0xeb	-21
155	0xfa	-6
156	0x2f	47
157	0x00	0
158	0x20	32
159	0x07	7
160	0x7f	127
161	0x18	24
162	0xef	-17
163	0x79	121
164	0xfe	-2
165	0x23	35
166	0x02	2
167	0xc7	-57
168	0x08	8
169	0x20	32
170	0xc3	-61
171	0x05	5
172	0xe9	-23
173	0x5a	90
174	0x81	-127
175	0xaa	-86
176	0x81	-127
177	0x16	22
178	0x1e	30
179	0xfb	-5
180	0xdf	-33
181	0x01	1
182	0xcc	-52
183	0xe7	-25
184	0xd8	-40
185	0xc6	-58
186	0x02	2
187	0x16	22
188	0x81	-127
189	0x3f	63
190	0x4c	76
191	0xf0	-16
192	0x7f	127
193	0xf8	-8
194	0xf6	-10
195	0xfa	-6
196	0xa8	-88
197	0xf7	-9
198	0x01	1
199	0x09	9
200	0x17	23
201	0xf2	-14
202	0x01	1
203	0xe8	-24
204	0x7f	127
205	0x34	52
206	0x33	51
207	0xdf	-33
208	0x00	0
209	0x9d	-99
210	0x05	5
211	0xda	-38
212	0x05	5
213	0x81	-127
214	0x50	80
215	0xcd	-51
216	0xef	-17
217	0x81	-127
218	0x19	25
219	0xf2	-14
220	0xfd	-3
221	0xc8	-56
222	0x20	32
223	0xf8	-8
224	0x9d	-99
225	0x24	36
226	0xe5	-27
227	0x0f	15
228	0xf1	-15
229	0xe4	-28
230	0x7f	127
231	0x61	97
232	0xf3	-13
233	0x2b	43
234	0x0f	15
235	0x05	5
236	0x00	0
237	0x29	41
238	0x99	-103
239	0x81	-127
240	0x7f	127
241	0xe1	-31
242	0xfe	-2
243	0x08	8
244	0xaf	-81
245	0x03	3
246	0xd3	-45
247	0xea	-22
248	0xf6	-10
249	0xe5	-27
250	0x40	64
251	0xf0	-16
252	0x12	18
253	0x8e	-114
254	0x7f	127
255	0x44	68

sequential/functional_1/block_3_project/Conv2D;StatefulPartitionedCall/sequential/functional_1/block_3_project/Conv2D i1 [16, 1, 1, 48]
0	0xf0	-16
1	0xfd	-3
2	0xe9	-23
3	0x09	9
4	0x18	24
5	0xfe	-2
6	0x02	2
7	0x69	105
8	0xcd	-51
9	0x10	16
10	0x2a	42
11	0xfa	-6
12	0x11	17
13	0xf0	-16
14	0xf3	-13
15	0x0e	14
16	0x0f	15
17	0xf3	-13
18	0xf8	-8
19	0xfc	-4
20	0x40	64
21	0xf9	-7
22	0x15	21
23	0x7f	127
24	0xf0	-16
25	0x57	87
26	0xfb	-5
27	0xf2	-14
28	0x1a	26
29	0xf0	-16
30	0x19	25
31	0xe7	-25
32	0xef	-17
33	0x34	52
34	0x14	20
35	0xd0	-48
36	0x10	16
37	0x30	48
38	0x12	18
39	0xf4	-12
40	0x94	-108
41	0xe6	-26
42	0x14	20
43	0x2b	43
44	0x24	36
45	0x1b	27
46	0x83	-125
47	0xce	-50
48	0xdb	-37
49	0xf4	-12
50	0x15	21
51	0x0e	14
52	0xdf	-33
53	0x0b	11
54	0x01	1
55	0x38	56
56	0xc9	-55
57	0xde	-34
58	0x06	6
59	0xd4	-44
60	0xea	-22
61	0xee	-18
62	0x00	0
63	0xfd	-3
64	0xe7	-25
65	0x77	119
66	0xf6	-10
67	0x12	18
68	0x08	8
69	0x08	8
70	0xe4	-28
71	0xf0	-16
72	0x19	25
73	0xd5	-43
74	0x11	17
75	0x18	24
76	0xe6	-26
77	0xaa	-86
78	0xda	-38
79	0x15	21
80	0xeb	-21
81	0xfb	-5
82	0x20	32
83	0xfe	-2
84	0xfc	-4
85	0xd7	-41
86	0x02	2
87	0x11	17
88	0xed	-19
89	0xe1	-31
90	0x7f	127
91	0x0c	12
92	0x0a	10
93	0xff	-1
94	0x17	23
95	0xf4	-12
96	0xeb	-21
97	0xf9	-7
98	0xf3	-13
99	0xdc	-36
100	0xfe	-2
101	0xbf	-65
102	0x05	5
103	0xeb	-21
104	0x01	1
105	0x0d	13
106	0x10	16
107	0x1a	26
108	0x0f	15
109	0x0f	15
110	0xf3	-13
111	0x08	8
112	0xfc	-4
113	0xec	-20
114	0xe7	-25
115	0xf3	-13
116	0xfc	-4
117	0xff	-1
118	0xff	-1
119	0x81	-127
120	0xf3	-13
121	0x4a	74
122	0xf1	-15
123	0x04	4
124	0xff	-1
125	0xec	-20
126	0xfd	-3
127	0xfa	-6
128	0xf9	-7
129	0x36	54
130	0x0b	11
131	0xff	-1
132	0x16	22
133	0x0b	11
134	0x1a	26
135	0x01	1
136	0xd8	-40
137	0x03	3
138	0xed	-19
139	0xfa	-6
140	0xff	-1
141	0xf6	-10
142	0x0f	15
143	0x08	8
144	0xf9	-7
145	0x20	32
146	0x02	2
147	0xe2	-30
148	0xff	-1
149	0x00	0
150	0x02	2
151	0xfc	-4
152	0xed	-19
153	0xfd	-3
154	0x00	0
155	0x26	38
156	0x81	-127
157	0x06	6
158	0xfb	-5
159	0xfe	-2
160	0x01	1
161	0x05	5
162	0xee	-18
163	0xfe	-2
164	0xe2	-30
165	0x08	8
166	0x06	6
167	0x10	16
168	0xf9	-7
169	0xf5	-11
170	0x03	3
171	0x18	24
172	0xf7	-9
173	0x12	18
174	0x04	4
175	0x11	17
176	0x04	4
177	0x01	1
178	0x11	17
179	0x13	19
180	0xf6	-10
181	0x1a	26
182	0x29	41
183	0x04	4
184	0x0a	10
185	0x06	6
186	0x17	23
187	0xe3	-29
188	0x08	8
189	0xfb	-5
190	0x04	4
191	0x13	19
192	0x24	36
193	0xe0	-32
194	0x09	9
195	0x0b	11
196	0x14	20
197	0x1c	28
198	0x17	23
199	0xe8	-24
200	0xe2	-30
201	0x03	3
202	0xf4	-12
203	0xed	-19
204	0x01	1
205	0x0c	12
206	0x01	1
207	0x10	16
208	0x15	21
209	0xf8	-8
210	0xb1	-79
211	0x03	3
212	0xfb	-5
213	0x0b	11
214	0x0e	14
215	0x48	72
216	0x01	1
217	0xe5	-27
218	0x06	6
219	0x30	48
220	0x09	9
221	0xb6	-74
222	0x13	19
223	0x07	7
224	0x0d	13
225	0xdd	-35
226	0x20	32
227	0x81	-127
228	0x0c	12
229	0x24	36
230	0xfe	-2
231	0x12	18
232	0xed	-19
233	0x12	18
234	0x08	8
235	0xe9	-23
236	0xf5	-11
237	0xec	-20
238	0x09	9
239	0x06	6
240	0x1e	30
241	0x01	1
242	0xec	-20
243	0x3a	58
244	0x00	0
245	0xf9	-7
246	0x07	7
247	0x18	24
248	0x02	2
249	0xfc	-4
250	0x28	40
251	0x08	8
252	0x03	3
253	0x34	52
254	0x02	2
255	0x01	1

sequential/functional_1/block_4_expand/Conv2D;StatefulPartitionedCall/sequential/functional_1/block_4_expand/Conv2D i1 [96, 1, 1, 16]
0	0x2e	46
1	0xea	-22
2	0x7f	127
3	0x6c	108
4	0x47	71
5	0xe3	-29
6	0x1b	27
7	0xe3	-29
8	0x79	121
9	0xee	-18
10	0xc7	-57
11	0xb6	-74
12	0x21	33
13	0x58	88
14	0xd7	-41
15	0xae	-82
16	0x22	34
17	0x4f	79
18	0xf8	-8
19	0xfd	-3
20	0x5c	92
21	0xfc	-4
22	0x0b	11
23	0x1d	29
24	0x38	56
25	0x4b	75
26	0xde	-34
27	0x7f	127
28	0x01	1
29	0xe6	-26
30	0x61	97
31	0xa2	-94
32	0x17	23
33	0xc7	-57
34	0x01	1
35	0xfe	-2
36	0xc4	-60
37	0x22	34
38	0xce	-50
39	0x59	89
40	0xb1	-79
41	0xa5	-91
42	0x0a	10
43	0x50	80
44	0xf7	-9
45	0x81	-127
46	0x54	84
47	0xa3	-93
48	0x7f	127
49	0x7d	125
50	0xfc	-4
51	0x25	37
52	0x83	-125
53	0xf2	-14
54	0xbe	-66
55	0xe5	-27
56	0x01	1
57	0xfe	-2
58	0x6e	110
59	0xba	-70
60	0xc6	-58
61	0x60	96
62	0xd1	-47
63	0xdb	-37
64	0x04	4
65	0xfc	-4
66	0x14	20
67	0x0a	10
68	0xe6	-26
69	0x1e	30
70	0xef	-17
71	0x2b	43
72	0xbf	-65
73	0xdb	-37
74	0xfc	-4
75	0xfd	-3
76	0xfb	-5
77	0x81	-127
78	0x19	25
79	0x02	2
80	0x7f	127
81	0xcf	-49
82	0xe7	-25
83	0x03	3
84	0xf6	-10
85	0x88	-120
86	0xe4	-28
87	0x10	16
88	0xfb	-5
89	0x0a	10
90	0x82	-126
91	0xfa	-6
92	0x17	23
93	0xf9	-7
94	0xfa	-6
95	0x1d	29
96	0x81	-127
97	0xb8	-72
98	0xf4	-12
99	0x61	97
100	0xcb	-53
101	0x01	1
102	0xd2	-46
103	0x1d	29
104	0x87	-121
105	0xb4	-76
106	0xb8	-72
107	0xdf	-33
108	0x1b	27
109	0x3b	59
110	0xf8	-8
111	0x66	102
112	0xee	-18
113	0x0e	14
114	0xb4	-76
115	0x30	48
116	0x28	40
117	0x81	-127
118	0xe8	-24
119	0x29	41
120	0x0b	11
121	0xe2	-30
122	0x0f	15
123	0xfb	-5
124	0xff	-1
125	0x12	18
126	0xd7	-41
127	0x0f	15
128	0x21	33
129	0xce	-50
130	0xf6	-10
131	0xf5	-11
132	0x0a	10
133	0x1c	28
134	0xc5	-59
135	0xc1	-63
136	0xf4	-12
137	0x0c	12
138	0xb9	-71
139	0x09	9
140	0x81	-127
141	0x00	0
142	0x01	1
143	0x18	24
144	0x19	25
145	0xca	-54
146	0x3d	61
147	0x7f	127
148	0x03	3
149	0x18	24
150	0xfa	-6
151	0xb5	-75
152	0x7e	126
153	0xa5	-91
154	0x01	1
155	0xeb	-21
156	0xfa	-6
157	0x32	50
158	0xba	-70
159	0x11	17
160	0x81	-127
161	0xb7	-73
162	0xf7	-9
163	0xce	-50
164	0x75	117
165	0x31	49
166	0x2f	47
167	0x49	73
168	0x78	120
169	0xb4	-76
170	0xa6	-90
171	0x21	33
172	0x64	100
173	0x8c	-116
174	0x87	-121
175	0x53	83
176	0x29	41
177	0xf1	-15
178	0x81	-127
179	0x13	19
180	0x34	52
181	0x18	24
182	0xeb	-21
183	0x29	41
184	0xf4	-12
185	0xdf	-33
186	0xf4	-12
187	0xf9	-7
188	0xfe	-2
189	0x15	21
190	0xd6	-42
191	0x04	4
192	0x6a	106
193	0xc8	-56
194	0x09	9
195	0x03	3
196	0xfb	-5
197	0xc2	-62
198	0xc3	-61
199	0xe6	-26
200	0x28	40
201	0xfe	-2
202	0x81	-127
203	0xec	-20
204	0xcb	-53
205	0xf1	-15
206	0x00	0
207	0x3b	59
208	0x26	38
209	0xb4	-76
210	0x18	24
211	0xc3	-61
212	0x64	100
213	0x0b	11
214	0x98	-104
215	0x81	-127
216	0x2d	45
217	0xb9	-71
218	0x15	21
219	0x0e	14
220	0x0f	15
221	0xf0	-16
222	0x1a	26
223	0x00	0
224	0xc9	-55
225	0x1d	29
226	0xa3	-93
227	0xd0	-48
228	0x5a	90
229	0x81	-127
230	0x3e	62
231	0xc3	-61
232	0x3d	61
233	0x30	48
234	0xf9	-7
235	0x9d	-99
236	0x18	24
237	0x77	119
238	0xed	-19
239	0x1b	27
240	0x1a	26
241	0xfa	-6
242	0x3d	61
243	0x28	40
244	0x32	50
245	0xd4	-44
246	0xda	-38
247	0xf3	-13
248	0x14	20
249	0xc3	-61
250	0xbd	-67
251	0xf8	-8
252	0x81	-127
253	0xcc	-52
254	0xf2	-14
255	0x34	52

sequential/functional_1/block_4_project/Conv2D;StatefulPartitionedCall/sequential/functional_1/block_4_project/Conv2D i1 [16, 1, 1, 96]
0	0xff	-1
1	0x12	18
2	0xf6	-10
3	0x13	19
4	0x2d	45
5	0x45	69
6	0xdc	-36
7	0xe3	-29
8	0x2d	45
9	0x03	3
10	0x0d	13
11	0x08	8
12	0xf6	-10
13	0x0d	13
14	0x17	23
15	0x44	68
16	0x01	1
17	0xf9	-7
18	0xf8	-8
19	0xf9	-7
20	0x62	98
21	0xc8	-56
22	0x08	8
23	0xf0	-16
24	0xe9	-23
25	0xdc	-36
26	0xd6	-42
27	0xa1	-95
28	0xfa	-6
29	0xfb	-5
30	0x2e	46
31	0x30	48
32	0x76	118
33	0xfb	-5
34	0x04	4
35	0xfe	-2
36	0x09	9
37	0xec	-20
38	0xec	-20
39	0x09	9
40	0xe0	-32
41	0x0d	13
42	0x13	19
43	0xe1	-31
44	0x03	3
45	0xe2	-30
46	0xf3	-13
47	0x19	25
48	0xf3	-13
49	0x14	20
50	0x02	2
51	0xf7	-9
52	0xde	-34
53	0xf3	-13
54	0x07	7
55	0xfc	-4
56	0x26	38
57	0x17	23
58	0xeb	-21
59	0xe7	-25
60	0xc4	-60
61	0x1e	30
62	0xf6	-10
63	0xf6	-10
64	0x0d	13
65	0x09	9
66	0x38	56
67	0x01	1
68	0x0c	12
69	0x04	4
70	0x01	1
71	0xe5	-27
72	0xc2	-62
73	0xfc	-4
74	0xff	-1
75	0x03	3
76	0xf9	-7
77	0xa7	-89
78	0x07	7
79	0xee	-18
80	0x26	38
81	0xed	-19
82	0xc6	-58
83	0xd5	-43
84	0x1d	29
85	0xf3	-13
86	0x06	6
87	0x19	25
88	0xf9	-7
89	0x03	3
90	0x13	19
91	0xe0	-32
92	0x17	23
93	0x14	20
94	0xf4	-12
95	0x7f	127
96	0x4e	78
97	0x9f	-97
98	0x2c	44
99	0x52	82
100	0xf5	-11
101	0xbe	-66
102	0xf0	-16
103	0xd4	-44
104	0xe7	-25
105	0xa4	-92
106	0xf9	-7
107	0x1a	26
108	0x0a	10
109	0xc2	-62
110	0xdd	-35
111	0xca	-54
112	0xac	-84
113	0xfb	-5
114	0x18	24
115	0x16	22
116	0xdc	-36
117	0x93	-109
118	0xd9	-39
119	0x1b	27
120	0x7f	127
121	0xbf	-65
122	0xb6	-74
123	0x10	16
124	0xe4	-28
125	0x5e	94
126	0xf0	-16
127	0x33	51
128	0x0b	11
129	0x0d	13
130	0xd5	-43
131	0x18	24
132	0xeb	-21
133	0xf5	-11
134	0x32	50
135	0xe6	-26
136	0x01	1
137	0xb2	-78
138	0x4c	76
139	0xde	-34
140	0xc8	-56
141	0x10	16
142	0x38	56
143	0xfb	-5
144	0x23	35
145	0x16	22
146	0x00	0
147	0xb9	-71
148	0x40	64
149	0xb2	-78
150	0x28	40
151	0xea	-22
152	0x16	22
153	0x1c	28
154	0xef	-17
155	0x95	-107
156	0x25	37
157	0xbd	-67
158	0x14	20
159	0xcd	-51
160	0x04	4
161	0xac	-84
162	0x22	34
163	0x2e	46
164	0x29	41
165	0x33	51
166	0xd9	-39
167	0x01	1
168	0x9f	-97
169	0x27	39
170	0xeb	-21
171	0x42	66
172	0x25	37
173	0x60	96
174	0x12	18
175	0xea	-22
176	0x2a	42
177	0x06	6
178	0xb5	-75
179	0x23	35
180	0xad	-83
181	0x40	64
182	0xff	-1
183	0x3f	63
184	0xd5	-43
185	0x0c	12
186	0x14	20
187	0x0a	10
188	0x07	7
189	0xd3	-45
190	0x28	40
191	0x01	1
192	0x1c	28
193	0x11	17
194	0x0e	14
195	0xe3	-29
196	0x05	5
197	0xff	-1
198	0xf6	-10
199	0x25	37
200	0x41	65
201	0xf0	-16
202	0x0e	14
203	0x47	71
204	0xff	-1
205	0x0a	10
206	0x30	48
207	0x06	6
208	0xf4	-12
209	0xf2	-14
210	0x0e	14
211	0xf8	-8
212	0xec	-20
213	0xbf	-65
214	0x06	6
215	0xc6	-58
216	0xff	-1
217	0xf1	-15
218	0xe4	-28
219	0x19	25
220	0xf8	-8
221	0x15	21
222	0x7f	127
223	0xc3	-61
224	0x12	18
225	0xb7	-73
226	0xe7	-25
227	0x3d	61
228	0x11	17
229	0x7e	126
230	0xd4	-44
231	0xe8	-24
232	0x01	1
233	0xee	-18
234	0xfb	-5
235	0x24	36
236	0xd2	-46
237	0xce	-50
238	0xc1	-63
239	0x19	25
240	0x1d	29
241	0x1f	31
242	0xdf	-33
243	0xde	-34
244	0x1a	26
245	0xff	-1
246	0xfc	-4
247	0xe1	-31
248	0xe6	-26
249	0x02	2
250	0xfc	-4
251	0x1c	28
252	0x03	3
253	0x05	5
254	0x4d	77
255	0x5d	93

sequential/functional_1/block_5_expand/Conv2D;StatefulPartitionedCall/sequential/functional_1/block_5_expand/Conv2D i1 [96, 1, 1, 16]
0	0x00	0
1	0x41	65
2	0xe7	-25
3	0x4e	78
4	0x1a	26
5	0x20	32
6	0x0c	12
7	0xf2	-14
8	0x1f	31
9	0x23	35
10	0xc5	-59
11	0x67	103
12	0x05	5
13	0x81	-127
14	0x2c	44
15	0x82	-126
16	0x14	20
17	0x33	51
18	0xf6	-10
19	0xea	-22
20	0x1a	26
21	0xe3	-29
22	0x7f	127
23	0x95	-107
24	0x01	1
25	0x57	87
26	0xf3	-13
27	0xee	-18
28	0x05	5
29	0xd0	-48
30	0x21	33
31	0x0c	12
32	0x81	-127
33	0x22	34
34	0xdc	-36
35	0xe9	-23
36	0x00	0
37	0xf9	-7
38	0x37	55
39	0x5d	93
40	0xe0	-32
41	0x37	55
42	0x6d	109
43	0xee	-18
44	0xbf	-65
45	0x0f	15
46	0x20	32
47	0xcd	-51
48	0xba	-70
49	0x41	65
50	0x32	50
51	0x40	64
52	0xcd	-51
53	0x3a	58
54	0x49	73
55	0x7f	127
56	0x0b	11
57	0x45	69
58	0x88	-120
59	0x06	6
60	0x2a	42
61	0xb7	-73
62	0xa8	-88
63	0xc3	-61
64	0x0d	13
65	0xff	-1
66	0x23	35
67	0x41	65
68	0xed	-19
69	0x41	65
70	0xfd	-3
71	0x2e	46
72	0x07	7
73	0xf0	-16
74	0xfe	-2
75	0xfc	-4
76	0x17	23
77	0xfc	-4
78	0x81	-127
79	0xe9	-23
80	0xf9	-7
81	0xe2	-30
82	0x3a	58
83	0xea	-22
84	0x08	8
85	0xe8	-24
86	0xfb	-5
87	0x1b	27
88	0xbb	-69
89	0x65	101
90	0xe2	-30
91	0x81	-127
92	0xf1	-15
93	0x18	24
94	0xc9	-55
95	0xe7	-25
96	0x0f	15
97	0x00	0
98	0x21	33
99	0xf5	-11
100	0x29	41
101	0x3b	59
102	0xbd	-67
103	0xb9	-71
104	0xf8	-8
105	0xfe	-2
106	0x2e	46
107	0xf2	-14
108	0x7f	127
109	0xe8	-24
110	0xf0	-16
111	0xdc	-36
112	0x14	20
113	0x0c	12
114	0x7f	127
115	0xf3	-13
116	0xea	-22
117	0xda	-38
118	0x07	7
119	0xf8	-8
120	0xb1	-79
121	0x1b	27
122	0xae	-82
123	0xd2	-46
124	0x0b	11
125	0xf9	-7
126	0x22	34
127	0xf2	-14
128	0x15	21
129	0x1e	30
130	0x4e	78
131	0x43	67
132	0xc7	-57
133	0x55	85
134	0x15	21
135	0x2f	47
136	0x2b	43
137	0x05	5
138	0x0c	12
139	0xa3	-93
140	0xda	-38
141	0x06	6
142	0x81	-127
143	0xb1	-79
144	0x20	32
145	0x89	-119
146	0x39	57
147	0x2f	47
148	0x0c	12
149	0xdf	-33
150	0x01	1
151	0x15	21
152	0x7f	127
153	0x02	2
154	0x51	81
155	0x0a	10
156	0xe4	-28
157	0x07	7
158	0x93	-109
159	0xe0	-32
160	0xd8	-40
161	0xa1	-95
162	0x05	5
163	0xed	-19
164	0x9a	-102
165	0x09	9
166	0xf2	-14
167	0x3b	59
168	0x64	100
169	0x7f	127
170	0x2e	46
171	0xe4	-28
172	0xe3	-29
173	0x40	64
174	0x53	83
175	0xf9	-7
176	0x2d	45
177	0xee	-18
178	0x08	8
179	0xa1	-95
180	0x0f	15
181	0xe4	-28
182	0x92	-110
183	0x81	-127
184	0xca	-54
185	0x2a	42
186	0xf6	-10
187	0xe2	-30
188	0x1f	31
189	0xe8	-24
190	0x29	41
191	0xc0	-64
192	0xf1	-15
193	0x05	5
194	0x0a	10
195	0xd8	-40
196	0xdd	-35
197	0xd9	-39
198	0xa0	-96
199	0xef	-17
200	0xd2	-46
201	0xb6	-74
202	0xe7	-25
203	0x10	16
204	0x19	25
205	0x7f	127
206	0x59	89
207	0x2e	46
208	0xdd	-35
209	0x9c	-100
210	0xbc	-68
211	0x1e	30
212	0xf6	-10
213	0xbd	-67
214	0x00	0
215	0xe8	-24
216	0x34	52
217	0x0c	12
218	0xf3	-13
219	0xf3	-13
220	0x17	23
221	0x12	18
222	0x7f	127
223	0x1f	31
224	0x01	1
225	0xc5	-59
226	0x39	57
227	0x1e	30
228	0x18	24
229	0x21	33
230	0x0a	10
231	0x7f	127
232	0x15	21
233	0x37	55
234	0x0c	12
235	0xd8	-40
236	0x0d	13
237	0x2c	44
238	0xc3	-61
239	0x77	119
240	0x15	21
241	0xdf	-33
242	0x02	2
243	0x3d	61
244	0x10	16
245	0xfd	-3
246	0x5f	95
247	0x00	0
248	0x05	5
249	0x81	-127
250	0x0e	14
251	0xdd	-35
252	0x00	0
253	0xeb	-21
254	0xf9	-7
255	0xdc	-36

sequential/functional_1/block_5_project/Conv2D;StatefulPartitionedCall/sequential/functional_1/block_5_project/Conv2D i1 [16, 1, 1, 96]
0	0xef	-17
1	0xf3	-13
2	0x03	3
3	0xe0	-32
4	0x11	17
5	0xf9	-7
6	0xd9	-39
7	0x00	0
8	0x10	16
9	0x04	4
10	0xf5	-11
11	0x05	5
12	0xf9	-7
13	0xf7	-9
14	0xe6	-26
15	0x06	6
16	0xfe	-2
17	0x04	4
18	0xfd	-3
19	0xfe	-2
20	0x0a	10
21	0xe0	-32
22	0x05	5
23	0x05	5
24	0x04	4
25	0x0b	11
26	0x04	4
27	0x7f	127
28	0x20	32
29	0xdc	-36
30	0x29	41
31	0xf6	-10
32	0xff	-1
33	0x06	6
34	0x06	6
35	0x02	2
36	0xf7	-9
37	0x0d	13
38	0xda	-38
39	0xfc	-4
40	0xf5	-11
41	0x07	7
42	0x00	0
43	0x24	36
44	0x06	6
45	0x0e	14
46	0x0e	14
47	0x05	5
48	0x18	24
49	0x01	1
50	0xf9	-7
51	0x09	9
52	0x11	17
53	0xed	-19
54	0xf5	-11
55	0x51	81
56	0x05	5
57	0x08	8
58	0xe4	-28
59	0xdd	-35
60	0xfb	-5
61	0x18	24
62	0x00	0
63	0xe7	-25
64	0xd8	-40
65	0xbf	-65
66	0xeb	-21
67	0x25	37
68	0x07	7
69	0x0a	10
70	0x11	17
71	0xf1	-15
72	0xf9	-7
73	0xe0	-32
74	0xfb	-5
75	0xe9	-23
76	0xe6	-26
77	0x12	18
78	0x02	2
79	0x06	6
80	0xf6	-10
81	0xe5	-27
82	0x19	25
83	0x15	21
84	0xfd	-3
85	0xf6	-10
86	0xf8	-8
87	0xa4	-92
88	0x03	3
89	0xf1	-15
90	0x06	6
91	0xfc	-4
92	0x2e	46
93	0xe0	-32
94	0xdd	-35
95	0xf4	-12
96	0x23	35
97	0xbb	-69
98	0xb7	-73
99	0xc7	-57
100	0x7f	127
101	0xf2	-14
102	0x3e	62
103	0x26	38
104	0xeb	-21
105	0xa7	-89
106	0xc8	-56
107	0xef	-17
108	0x04	4
109	0xfb	-5
110	0xc4	-60
111	0x26	38
112	0xbc	-68
113	0x06	6
114	0x2e	46
115	0x2a	42
116	0x13	19
117	0x26	38
118	0xf0	-16
119	0xc9	-55
120	0x0e	14
121	0xf8	-8
122	0xf5	-11
123	0xbb	-69
124	0x21	33
125	0xed	-19
126	0xc4	-60
127	0x25	37
128	0xea	-22
129	0x1f	31
130	0x05	5
131	0x01	1
132	0x08	8
133	0xf8	-8
134	0x02	2
135	0x15	21
136	0xe2	-30
137	0x24	36
138	0xd7	-41
139	0xeb	-21
140	0xd9	-39
141	0x5a	90
142	0x0a	10
143	0x08	8
144	0x1a	26
145	0xb6	-74
146	0x0d	13
147	0xd8	-40
148	0xec	-20
149	0x27	39
150	0x33	51
151	0x0c	12
152	0xc8	-56
153	0xea	-22
154	0xde	-34
155	0xdd	-35
156	0x18	24
157	0xed	-19
158	0x00	0
159	0xd5	-43
160	0xab	-85
161	0x68	104
162	0xe5	-27
163	0xeb	-21
164	0xfb	-5
165	0xe6	-26
166	0xec	-20
167	0x11	17
168	0x35	53
169	0x97	-105
170	0xe4	-28
171	0x02	2
172	0x22	34
173	0xce	-50
174	0x2c	44
175	0x07	7
176	0x06	6
177	0xe5	-27
178	0x1b	27
179	0x01	1
180	0xcd	-51
181	0x21	33
182	0xef	-17
183	0x1a	26
184	0x1d	29
185	0xd9	-39
186	0xfe	-2
187	0x09	9
188	0x1b	27
189	0x0b	11
190	0x21	33
191	0x61	97
192	0x02	2
193	0x38	56
194	0xab	-85
195	0xf5	-11
196	0x59	89
197	0x4f	79
198	0x1f	31
199	0x48	72
200	0xfb	-5
201	0x9a	-102
202	0xfd	-3
203	0xef	-17
204	0xfc	-4
205	0x00	0
206	0x1b	27
207	0x18	24
208	0x08	8
209	0xef	-17
210	0xd1	-47
211	0x41	65
212	0x14	20
213	0xfe	-2
214	0x49	73
215	0x13	19
216	0x31	49
217	0x19	25
218	0xfb	-5
219	0xda	-38
220	0x22	34
221	0xf6	-10
222	0x2d	45
223	0xc9	-55
224	0x20	32
225	0x25	37
226	0xe6	-26
227	0x22	34
228	0x81	-127
229	0xad	-83
230	0x1a	26
231	0x1e	30
232	0x02	2
233	0xd2	-46
234	0x10	16
235	0xed	-19
236	0x14	20
237	0xdf	-33
238	0x01	1
239	0x42	66
240	0xe3	-29
241	0x12	18
242	0xe6	-26
243	0xf6	-10
244	0x57	87
245	0xfa	-6
246	0xf8	-8
247	0x35	53
248	0x20	32
249	0x0a	10
250	0x1f	31
251	0x04	4
252	0x17	23
253	0x16	22
254	0x1f	31
255	0xe5	-27

sequential/functional_1/block_6_expand/Conv2D;StatefulPartitionedCall/sequential/functional_1/block_6_expand/Conv2D i1 [96, 1, 1, 16]
0	0xe3	-29
1	0x5b	91
2	0xfe	-2
3	0x81	-127
4	0xd4	-44
5	0xe1	-31
6	0xe0	-32
7	0xbc	-68
8	0xed	-19
9	0x10	16
10	0x03	3
11	0x4d	77
12	0x14	20
13	0xc6	-58
14	0xf9	-7
15	0x32	50
16	0xdb	-37
17	0x16	22
18	0xc0	-64
19	0xfc	-4
20	0xe2	-30
21	0xe3	-29
22	0x1c	28
23	0xab	-85
24	0x3e	62
25	0x36	54
26	0xc4	-60
27	0x13	19
28	0x03	3
29	0x03	3
30	0x2a	42
31	0x81	-127
32	0x01	1
33	0x0a	10
34	0xdb	-37
35	0x26	38
36	0x2c	44
37	0x13	19
38	0xc8	-56
39	0xc1	-63
40	0x7f	127
41	0xde	-34
42	0xfd	-3
43	0x0a	10
44	0xf0	-16
45	0x60	96
46	0xb9	-71
47	0x17	23
48	0x2f	47
49	0xbd	-67
50	0x05	5
51	0x90	-112
52	0x08	8
53	0xe3	-29
54	0xf8	-8
55	0xfe	-2
56	0x72	114
57	0xfd	-3
58	0x4b	75
59	0x2c	44
60	0xf8	-8
61	0x2e	46
62	0x14	20
63	0x7f	127
64	0xaf	-81
65	0x32	50
66	0x0e	14
67	0x29	41
68	0x07	7
69	0xed	-19
70	0xfe	-2
71	0x29	41
72	0x03	3
73	0x09	9
74	0x15	21
75	0xea	-22
76	0x81	-127
77	0xf3	-13
78	0xf0	-16
79	0x1c	28
80	0x03	3
81	0x43	67
82	0x75	117
83	0x05	5
84	0x16	22
85	0x50	80
86	0xb2	-78
87	0x4d	77
88	0xc9	-55
89	0x49	73
90	0xe7	-25
91	0xdf	-33
92	0x24	36
93	0xd2	-46
94	0x81	-127
95	0x15	21
96	0x24	36
97	0xc6	-58
98	0x79	121
99	0x81	-127
100	0x28	40
101	0x01	1
102	0xd5	-43
103	0x63	99
104	0xb4	-76
105	0x9a	-102
106	0x37	55
107	0xdd	-35
108	0x04	4
109	0x5b	91
110	0xeb	-21
111	0x52	82
112	0x25	37
113	0x75	117
114	0xe5	-27
115	0xc5	-59
116	0x5e	94
117	0x0d	13
118	0x04	4
119	0xce	-50
120	0x7f	127
121	0x60	96
122	0xe4	-28
123	0x14	20
124	0x1c	28
125	0xe9	-23
126	0x3f	63
127	0x2e	46
128	0x0c	12
129	0xab	-85
130	0x0a	10
131	0xab	-85
132	0x17	23
133	0xc8	-56
134	0x12	18
135	0xb7	-73
136	0x19	25
137	0x3c	60
138	0x48	72
139	0xf8	-8
140	0x11	17
141	0x7f	127
142	0x4f	79
143	0x3b	59
144	0x08	8
145	0xe0	-32
146	0xfb	-5
147	0x7f	127
148	0x2a	42
149	0xf8	-8
150	0x28	40
151	0xc3	-61
152	0xc0	-64
153	0x6f	111
154	0x1f	31
155	0xeb	-21
156	0xfa	-6
157	0xc0	-64
158	0xf9	-7
159	0xf8	-8
160	0xf8	-8
161	0x17	23
162	0xd2	-46
163	0x81	-127
164	0x0a	10
165	0x00	0
166	0xf6	-10
167	0x24	36
168	0x20	32
169	0xde	-34
170	0x12	18
171	0xe5	-27
172	0xf0	-16
173	0xd5	-43
174	0xfe	-2
175	0x1d	29
176	0x02	2
177	0x11	17
178	0x17	23
179	0xed	-19
180	0x51	81
181	0xe2	-30
182	0x55	85
183	0xc6	-58
184	0xac	-84
185	0x26	38
186	0xfe	-2
187	0x1e	30
188	0x00	0
189	0x7f	127
190	0xbb	-69
191	0xe1	-31
192	0x45	69
193	0xee	-18
194	0x83	-125
195	0xf1	-15
196	0x1f	31
197	0xb0	-80
198	0x1b	27
199	0x17	23
200	0x10	16
201	0x3a	58
202	0xb2	-78
203	0xd0	-48
204	0xd9	-39
205	0x7f	127
206	0xfe	-2
207	0x20	32
208	0xef	-17
209	0x07	7
210	0xe7	-25
211	0x0a	10
212	0x04	4
213	0x81	-127
214	0xfd	-3
215	0x12	18
216	0x04	4
217	0xf4	-12
218	0x07	7
219	0xff	-1
220	0x0c	12
221	0xf2	-14
222	0x0a	10
223	0x0b	11
224	0x19	25
225	0xe6	-26
226	0x5f	95
227	0xe0	-32
228	0x3e	62
229	0x06	6
230	0x81	-127
231	0xa3	-93
232	0xed	-19
233	0xd4	-44
234	0x1c	28
235	0x12	18
236	0x08	8
237	0xc3	-61
238	0xee	-18
239	0xe0	-32
240	0xab	-85
241	0x15	21
242	0xee	-18
243	0xce	-50
244	0xff	-1
245	0x02	2
246	0x7f	127
247	0x3a	58
248	0xdb	-37
249	0x2d	45
250	0x4d	77
251	0xe4	-28
252	0x0b	11
253	0x56	86
254	0x40	64
255	0x02	2
